Bankbot2-main/data.pth (torch, 5015 bytes, 6 tensors)

l1.weight f4 [8, 54]
000000 14 1f 93 be ec 0c 04 3f b3 71 4e be 47 35 ad 3c
       -0.28734648 0.5158222 -0.2016056 0.021143569
000010 03 d0 c4 be f8 6c 40 3f 15 8e bf bd 65 95 a8 be
       -0.3843995 0.75166273 -0.09353272 -0.3292648
000020 04 c3 4a be 6f 72 a2 be 12 61 1b be 52 eb b1 3e
       -0.19800955 -0.3172793 -0.15173748 0.34749848
000030 1e b4 19 3e 3f 7a fa 3e 64 0e 9f 3e c9 14 e0 3e
       0.15010116 0.4892139 0.31065667 0.43765858
000040 1d 20 ac be 38 07 6e 3f 4b 52 7a be d4 5b e1 be
       -0.3361825 0.92979765 -0.24445455 -0.44015372
000050 c6 7e 11 be 1c 5d ee be 36 1c 02 bf aa b5 cf 3e
       -0.14208516 -0.46555412 -0.50824296 0.40568286
000060 85 41 7d 3e 4f 18 33 bd 87 61 9d be 2f 21 20 3f
       0.24732025 -0.043724354 -0.3073847 0.62550634
000070 ad 76 ac bd 75 48 a6 3e ea 5a 3d 3f 48 69 d4 3e
       -0.08421073 0.32477155 0.7396685 0.41486573
000080 f5 06 4f be 65 92 37 be 8d 2c 31 3f 3f 6d 31 3e
       -0.20217498 -0.17926939 0.69208604 0.1732683
000090 c0 47 dd 3b 94 5d 6e bd 0e ab 37 be 6e 7e 74 be
       0.006752938 -0.05819471 -0.17936346 -0.23876354
0000a0 56 57 28 3f cb b2 ac be e9 cf 7b 3e 72 5a c2 3e
       0.65758264 -0.33730158 0.2459103 0.3795963
0000b0 76 35 bf 3e b2 0c f2 3e 3d e0 19 bf 6e 4a 28 be
       0.37345475 0.4727531 -0.60107785 -0.16434643
0000c0 d6 25 dc 3d 4d 82 c8 be 01 a8 d3 3e 2d 74 75 be
       0.10749404 -0.39161912 0.41339114 -0.23970099
0000d0 ae 73 53 be 5d f4 3f 3d 39 fe 41 3e b6 cb bc 3e
       -0.20649597 0.046863902 0.18944634 0.3687417
0000e0 2e a8 ab be ed ab 1c 3e f8 04 f6 3d 4e cf 32 3f
       -0.33526748 0.1529996 0.120126665 0.6984757
0000f0 ec a0 b3 be dc b5 ae be 9f 07 20 bf 4a c2 3e be
       -0.3508371 -0.34123123 -0.6251163 -0.18628803
000100 dc b1 a5 3e 63 e5 16 3e 6b 27 f3 be e9 35 65 3d
       0.32362258 0.14735942 -0.4749101 0.055959616
000110 98 0c cf 3d 1a 76 6e 3d 0f be 88 3e ee 45 52 3f
       0.10109824 0.0582181 0.26707503 0.82137954
000120 2f 96 71 be 31 11 96 3e 5f 2e 74 3e 0c a7 92 3e
       -0.23592447 0.2930999 0.23845814 0.28643072
000130 5b bb e5 3e c8 aa bf 3e 1e f5 0c bd b2 6d 5b 3e
       0.44869503 0.37434983 -0.03441345 0.21428564
000140 d3 a6 b1 be ac b8 84 3e 04 cc 40 be c3 5a ae 3d
       -0.3469759 0.25922143 -0.18827826 0.08513405
000150 36 79 12 3f 39 2e 11 3e 40 30 11 3d 79 d5 b6 be
       0.57216203 0.14177789 0.035446405 -0.35709742
000160 72 45 53 3e dd 30 83 3e a7 ac c7 be 22 9a 29 bf
       0.2063196 0.25623217 -0.3899891 -0.66250813
000170 61 67 1a be 27 17 aa be a0 43 1f 3f b0 26 84 be
       -0.15078498 -0.3322079 0.6221256 -0.25810766
000180 2d 9e 60 3d 29 0e 93 3e 25 0c 14 be 07 eb e0 3e
       0.05483835 0.2872174 -0.14457758 0.43929312
000190 0f 00 87 3e 73 78 d8 3d 27 27 6c 3e 6c 5a de be
       0.26367232 0.10569849 0.2306181 -0.4342836
0001a0 4c 4b 55 3e 77 6f e0 bd 3d 41 10 be d8 ca 22 3e
       0.20829505 -0.1095876 -0.14087386 0.15897691
0001b0 b3 9e 6a be 99 f2 8e be 97 e1 66 be 64 79 c0 3e
       -0.22912101 -0.27919462 -0.22546993 0.37592614
0001c0 b0 37 06 3f ef 96 10 bf 9c 06 00 3d 83 97 3c be
       0.5242872 -0.56480306 0.031256303 -0.18417172
0001d0 26 1c c4 3c c6 05 c4 be a8 8d 0f 3e db 31 74 3e
       0.023939203 -0.38285655 0.14018881 0.23847143
0001e0 68 fa 93 3e 3b 64 a6 3e 90 4b 28 be b4 43 3e 3e
       0.28901982 0.32498345 -0.16435075 0.18580514
0001f0 30 d2 0f 3e dd 8f 10 bf bf 62 8a 3e 87 ba f0 3e
       0.14045024 -0.5646952 0.27028462 0.4701731
000200 8b ac 06 be 91 fa dd 3e c6 49 19 3f 93 d5 fe 3e
       -0.13151757 0.4335523 0.59878194 0.4977232
000210 c7 f0 f4 3d 51 5e 9c 3e cc 02 20 3f 72 1a 85 be
       0.11959987 0.30540708 0.6250427 -0.2599674
000220 e4 5d e9 3e 47 36 ac be 7f 1e ad be 50 cd 86 3e
       0.45579445 -0.3363516 -0.3381233 0.26328516
000230 e9 46 1c be fa 45 08 bd 5d a2 32 3c bd 53 b5 3e
       -0.15261425 -0.03326986 0.010902968 0.3541545
000240 d0 e8 ea 3e 56 08 a8 bd 05 c9 81 bd d5 71 2b be
       0.45880747 -0.08204715 -0.063371696 -0.16742642
000250 18 9a 71 be 37 52 24 3f ca 4e 06 3e 53 d5 4a be
       -0.23593938 0.6418795 0.13115993 -0.19807939
000260 07 22 9c 3e 5c 7e 5a be b5 94 10 bf 18 77 00 be
       0.3049471 -0.21337265 -0.5647691 -0.1254543
000270 89 7d d5 3e dd 39 3e 3f 63 68 9b 3e 34 af cd 3e
       0.41697338 0.7430704 0.30353078 0.40172732
000280 b5 7a ad 3d f4 a1 b3 3c 3f a1 10 3f dd 50 ba 3e
       0.0847067 0.021927811 0.5649604 0.3638982
000290 5d 2c d1 3e 61 88 2b be 5e d6 e4 bd 1b b4 1e 3f
       0.4085416 -0.16751243 -0.111737 0.6199357
0002a0 e5 b5 da 3e 7b 3d 9f 3e 04 65 93 3e f5 f6 a9 3e
       0.427169 0.31101593 0.28788006 0.33196226
0002b0 35 62 14 be 9c de 1c be bb 68 78 3d 39 01 7a bc
       -0.14490588 -0.15319294 0.060646754 -0.015259081
0002c0 1b 6f 2c 3e 13 60 d1 bd 39 e0 a1 be b4 3d 18 3f
       0.16839258 -0.10223403 -0.3161638 0.5946915
0002d0 65 ac a5 be 53 22 f3 be 4d 3c 01 3f e4 c6 ee be
       -0.3235809 -0.47487125 0.50482637 -0.46636117
0002e0 1e cb ef be ba f6 08 bf 8a 1b 5b bd cf 8f 0e be
       -0.46834654 -0.53501475 -0.05349306 -0.13922046
0002f0 cd 59 92 be 60 3f 6a 3e b4 74 4a 3d 6d bc 4d bd
       -0.28584138 0.22875738 0.049427703 -0.050228525
000300 15 7b ad 3e 7a 8f 30 be 23 55 9c 3e 4c ab 00 3f
       0.33882967 -0.17242232 0.30533704 0.5026138
000310 08 ba a9 3e ad 9d 85 bd d0 4a 3e 3d 0f ae ab 3e
       0.33149743 -0.06524215 0.046458066 0.33531234
000320 db e1 b5 3e c9 35 c5 3e d3 56 b0 3e 46 77 ca be
       0.35523877 0.38517597 0.34441242 -0.39544123
000330 c9 f3 1d be 08 52 92 3e e5 46 cd 3e 98 55 8f 3e
       -0.15425028 0.2857821 0.4009315 0.2799499
000340 e9 5f 27 3f 87 2f d7 3e 33 df 27 be b8 1a cc be
       0.6538072 0.42028448 -0.16393737 -0.39864135
000350 0f 24 83 bd 78 b6 45 be dd 48 73 3e dc 94 c9 3e
       -0.06403362 -0.19307888 0.23758264 0.39371383
000360 75 85 dd 3e 5c 71 54 3c 9b 33 8b 3e 8a 13 6d 3e
       0.43265882 0.01296648 0.2718781 0.23151985
000370 8d d6 ac 3e 0c 56 31 3e 89 f8 81 3e 34 fd 9e 3e
       0.3375744 0.1731798 0.2538493 0.31052554
000380 dc 02 fc 3e 75 48 d7 3e da a4 ba bd c9 29 44 be
       0.49220932 0.42047468 -0.09113474 -0.19156565
000390 b0 97 17 bd 5e 92 98 be 62 0c 5f be a3 53 ac be
       -0.037009895 -0.2979917 -0.21782067 -0.3365756
0003a0 f3 aa 33 3c 71 df 83 3e ca 0f 63 be 5a 5b ca bd
       0.01096605 0.2575641 -0.22173992 -0.09880705
0003b0 46 08 b6 3e ec 49 d9 bd 0a ef 77 bd a0 10 91 be
       0.35553187 -0.106098026 -0.0605307 -0.28332996
0003c0 cf ef 94 3c 8a 5e 94 3d 47 9c 86 be c2 c9 f4 be
       0.018180756 0.072445944 -0.26291105 -0.4781018
0003d0 f4 98 67 bc 51 f7 c7 be f6 5b 16 3e c0 60 a8 be
       -0.014135588 -0.39055875 0.14683518 -0.32886314
0003e0 93 f9 b0 3e 89 a5 e9 3e d0 6d 3b be 72 61 a0 bd
       0.3456541 0.45634106 -0.18303609 -0.07831086
0003f0 a3 6e 4d be 28 7b c4 3e 7f 74 b9 3e 1c 5a fe 3e
       -0.20061736 0.3837521 0.36221692 0.49678123

l1.bias f4 [8]
000000 8f df 17 3f 88 10 81 3f ae 97 10 3f c2 3d f3 3e
       0.593255 1.008317 0.56481445 0.47508055
000010 51 83 4d 3f 3d d5 31 3f e5 a9 a7 3e 0d 1a c0 3e
       0.802785 0.69466 0.32746807 0.37519875

l2.weight f4 [8, 8]
000000 4c f8 2b 3f 26 31 ff 3e 51 c8 60 bf a7 bb b8 3f
       0.67175746 0.49842185 -0.8780566 1.4432267
000010 c7 70 5f 3f ad 40 11 bf b0 42 aa 3d ca 22 55 3f
       0.8728146 -0.5673931 0.08313501 0.8325621
000020 e6 23 00 3d ba 5f 4d bf 62 2d fc 3e 40 80 ee 3e
       0.031284235 -0.8022419 0.49253374 0.46582222
000030 68 a5 3d be 6a e9 1d 3f 8b 2b 5f 3f d3 d6 86 3f
       -0.18520129 0.61684287 0.87175816 1.0534309
000040 d9 99 53 bf b3 84 88 be 93 d4 89 3e 65 6b 33 3f
       -0.8265663 -0.2666374 0.26919994 0.70085746
000050 64 d7 5a 3f f5 55 19 3f fe eb 87 be c8 b1 82 3f
       0.8548491 0.59896785 -0.26547235 1.0210505
000060 04 3a f4 be d8 8b 4d 3f 27 fc 0e 3e 0a 67 58 3f
       -0.47700512 0.8029151 0.13963376 0.84532225
000070 cf 1b 8e 3f 5b 59 66 3e 29 6d 14 be b7 45 45 bf
       1.1102237 0.22495024 -0.14494766 -0.770595
000080 3e a5 b8 be 17 77 49 3f 7e fd f9 bc be bd 59 3f
       -0.3606357 0.7869734 -0.030516382 0.8505515
000090 58 b2 87 3f 15 69 0e 3f 2a 67 e6 be d4 67 17 bf
       1.0601301 0.5562909 -0.45000583 -0.59142804
0000a0 92 df e8 be a4 7a 2e be 21 5a 35 3f 80 24 0e bf
       -0.4548307 -0.17038971 0.7084065 -0.55524445
0000b0 6c cf 95 3e e6 df 99 3f 8a 8c 5b bf 79 95 32 3f
       0.29259813 1.2021453 -0.8576132 0.6975933
0000c0 97 fa 8c bf 70 be c0 3e f9 ba bd 3e db fe 38 bd
       -1.1013974 0.37645292 0.3705671 -0.045164924
0000d0 01 a0 27 3f 7d 2f a9 3e ca 61 b9 3d af 32 a9 3e
       0.6547852 0.33044043 0.09051855 0.3304648
0000e0 c2 8c a1 3f 41 cb 7d 3f d2 e1 09 3f bb 8f 0a bf
       1.2621081 0.99138266 0.538602 -0.54125565
0000f0 cd c9 34 bf 22 ce 80 3f 87 25 b8 3f b0 b6 3c be
       -0.70620424 1.0062907 1.4386452 -0.18429065

l2.bias f4 [8]
000000 61 41 35 3e b2 80 09 be 6b 5b a3 3d 0e 36 26 3f
       0.17700721 -0.13428 0.07976421 0.6492623
000010 a9 22 01 3f 11 57 c2 3e ca 61 a2 3d ba 8a 1e 3f
       0.5044351 0.3795705 0.07928808 0.6193043

l3.weight f4 [7, 8]
000000 ea fc 8d bf 4f 41 a4 3e 18 79 2a bf df d0 11 bf
       -1.1092808 0.32081077 -0.66591024 -0.56959337
000010 9e 46 83 bf 77 b5 50 bf 2c e4 81 bf d9 a2 1c 3f
       -1.0255926 -0.81526893 -1.0147758 0.61185986
000020 17 6d 58 3f 7d 1d 7d be bf c6 09 bf b2 fb 88 bf
       0.8454146 -0.2471828 -0.5381889 -1.0701811
000030 be fe ac bf 43 54 d3 be 36 ab 8c bf d0 2f 21 3e
       -1.3515241 -0.41275224 -1.098975 0.15740895
000040 cf 55 13 3f 97 67 c1 bf bc 70 ae bf ac bb 97 3e
       0.5755281 -1.5109738 -1.3628154 0.2963537
000050 a7 46 58 3e 1a 27 9a bf 3b 0f 3b bf a2 d2 9d 3d
       0.21120702 -1.2043183 -0.73070115 0.07706191
000060 55 c5 9f bf 7a 70 87 bf b7 35 2f be 42 a5 af 3e
       -1.2482096 -1.05812 -0.17110334 0.3430577
000070 89 ff b2 3e b2 a4 22 3f 52 b7 13 3e 1c 3c 11 3e
       0.34960583 0.63532555 0.144254 0.14183086
000080 bc eb 68 bf 6e c3 11 3f a4 e8 c5 3e d6 d6 69 bf
       -0.909847 0.5693883 0.38654053 -0.9134344
000090 a4 7b 94 bf d4 72 46 3e 32 07 92 3e 6c 0a 91 be
       -1.1600232 0.19379741 0.28521115 -0.28328264
0000a0 31 7f 82 3e bf da 23 3a 6e 82 07 3f ad f7 c9 be
       0.25487664 0.0006250552 0.52933395 -0.39446774
0000b0 ae 62 d6 bd 2f 5d bc 3e 25 9e 28 be f8 91 90 bf
       -0.104680404 0.36789843 -0.16466577 -1.1294546
0000c0 0f fc e3 3e 49 e6 c3 bf 2b 84 37 3e b1 55 06 3f
       0.44528243 -1.5304652 0.17921512 0.52474505
0000d0 56 80 da 3e ca 0f a0 bf 4e 28 d0 3e f4 5e c1 bf
       0.42676038 -1.2504818 0.4065575 -1.5107102

l3.bias f4 [7]
000000 28 e6 ca 3e 5e f1 40 3e c9 91 83 3e 3a a5 0c bd
       0.3962872 0.18842074 0.25697163 -0.03433726
000010 6a 35 87 bd 4d 18 05 be af 59 2d 3e
       -0.06601985 -0.12997551 0.16928743
